…
  (pool): MaxPool2d(kernel_size=2, stride=2, padding=0, dilation=1, ceil_mode=False)
  (fc1): Linear(in_features=1024, out_features=500, bias=True)
  (fc2): Linear(in_features=500, out_features=10, bias=True)
  (dropout): Dropout(p=0.25, inplace=False)
)
========================================================================================================================
Layer (type (var_name))                  Input Shape          Output Shape         Param #              Trainable
========================================================================================================================
CNNNet1 (CNNNet1)                        [128, 3, 224, 224]   [6272, 10]           --                   True
├─Conv2d (conv1)                         [128, 3, 224, 224]   [128, 16, 224, 224]  448                  True
├─MaxPool2d (pool)                       [128, 16, 224, 224]  [128, 16, 112, 112]  --                   --
├─Conv2d (conv2)                         [128, 16, 112, 112]  [128, 32, 112, 112]  4,640                True
├─MaxPool2d (pool)                       [128, 32, 112, 112]  [128, 32, 56, 56]    --                   --
├─Conv2d (conv3)                         [128, 32, 56, 56]    [128, 64, 56, 56]    18,496               True
├─MaxPool2d (pool)                       [128, 64, 56, 56]    [128, 64, 28, 28]    --                   --
├─Dropout (dropout)                      [6272, 1024]         [6272, 1024]         --                   --
├─Linear (fc1)                           [6272, 1024]         [6272, 500]          512,500              True
├─Dropout (dropout)                      [6272, 500]          [6272, 500]          --                   --
├─Linear (fc2)                           [6272, 500]          [6272, 10]           5,010                True
========================================================================================================================
Total params: 541,094
Trainable params: 541,094
Non-trainable params: 0
Total mult-adds (Units.GIGABYTES): 21.00
========================================================================================================================
Input size (MB): 77.07
Forward/backward pass size (MB): 1464.24
…
