…
      (relu): ReLU(inplace=True)
    )
  )
  (avgpool): AdaptiveAvgPool2d(output_size=(1, 1))
  (fc): Linear(in_features=2048, out_features=1000, bias=True)
)
The model has 23,528,522 trainable parameters
========================================================================================================================
Layer (type (var_name))                  Input Shape          Output Shape         Param #              Trainable
========================================================================================================================
ResNet (ResNet)                          [128, 3, 224, 224]   [128, 10]            --                   True
├─Conv2d (conv1)                         [128, 3, 224, 224]   [128, 64, 112, 112]  9,408                True
├─BatchNorm2d (bn1)                      [128, 64, 112, 112]  [128, 64, 112, 112]  128                  True
├─ReLU (relu)                            [128, 64, 112, 112]  [128, 64, 112, 112]  --                   --
├─MaxPool2d (maxpool)                    [128, 64, 112, 112]  [128, 64, 56, 56]    --                   --
├─Sequential (layer1)                    [128, 64, 56, 56]    [128, 256, 56, 56]   --                   True
│    └─Bottleneck (0)                    [128, 64, 56, 56]    [128, 256, 56, 56]   --                   True
│    │    └─Conv2d (conv1)               [128, 64, 56, 56]    [128, 64, 56, 56]    4,096                True
│    │    └─BatchNorm2d (bn1)            [128, 64, 56, 56]    [128, 64, 56, 56]    128                  True
│    │    └─ReLU (relu)                  [128, 64, 56, 56]    [128, 64, 56, 56]    --                   --
│    │    └─Conv2d (conv2)               [128, 64, 56, 56]    [128, 64, 56, 56]    36,864               True
│    │    └─BatchNorm2d (bn2)            [128, 64, 56, 56]    [128, 64, 56, 56]    128                  True
│    │    └─ReLU (relu)                  [128, 64, 56, 56]    [128, 64, 56, 56]    --                   --
│    │    └─Conv2d (conv3)               [128, 64, 56, 56]    [128, 256, 56, 56]   16,384               True
│    │    └─BatchNorm2d (bn3)            [128, 256, 56, 56]   [128, 256, 56, 56]   512                  True
│    │    └─Sequential (downsample)      [128, 64, 56, 56]    [128, 256, 56, 56]   16,896               True
│    │    └─ReLU (relu)                  [128, 256, 56, 56]   [128, 256, 56, 56]   --                   --
│    └─Bottleneck (1)                    [128, 256, 56, 56]   [128, 256, 56, 56]   --                   True
│    │    └─Conv2d (conv1)               [128, 256, 56, 56]   [128, 64, 56, 56]    16,384               True
│    │    └─BatchNorm2d (bn1)            [128, 64, 56, 56]    [128, 64, 56, 56]    128                  True
│    │    └─ReLU (relu)                  [128, 64, 56, 56]    [128, 64, 56, 56]    --                   --
│    │    └─Conv2d (conv2)               [128, 64, 56, 56]    [128, 64, 56, 56]    36,864               True
│    │    └─BatchNorm2d (bn2)            [128, 64, 56, 56]    [128, 64, 56, 56]    128                  True
│    │    └─ReLU (relu)                  [128, 64, 56, 56]    [128, 64, 56, 56]    --                   --
│    │    └─Conv2d (conv3)               [128, 64, 56, 56]    [128, 256, 56, 56]   16,384               True
│    │    └─BatchNorm2d (bn3)            [128, 256, 56, 56]   [128, 256, 56, 56]   512                  True
│    │    └─ReLU (relu)                  [128, 256, 56, 56]   [128, 256, 56, 56]   --                   --
│    └─Bottleneck (2)                    [128, 256, 56, 56]   [128, 256, 56, 56]   --                   True
│    │    └─Conv2d (conv1)               [128, 256, 56, 56]   [128, 64, 56, 56]    16,384               True
│    │    └─BatchNorm2d (bn1)            [128, 64, 56, 56]    [128, 64, 56, 56]    128                  True
│    │    └─ReLU (relu)                  [128, 64, 56, 56]    [128, 64, 56, 56]    --                   --
│    │    └─Conv2d (conv2)               [128, 64, 56, 56]    [128, 64, 56, 56]    36,864               True
│    │    └─BatchNorm2d (bn2)            [128, 64, 56, 56]    [128, 64, 56, 56]    128                  True
│    │    └─ReLU (relu)                  [128, 64, 56, 56]    [128, 64, 56, 56]    --                   --
│    │    └─Conv2d (conv3)               [128, 64, 56, 56]    [128, 256, 56, 56]   16,384               True
│    │    └─BatchNorm2d (bn3)            [128, 256, 56, 56]   [128, 256, 56, 56]   512                  True
│    │    └─ReLU (relu)                  [128, 256, 56, 56]   [128, 256, 56, 56]   --                   --
├─Sequential (layer2)                    [128, 256, 56, 56]   [128, 512, 28, 28]   --                   True
│    └─Bottleneck (0)                    [128, 256, 56, 56]   [128, 512, 28, 28]   --                   True
│    │    └─Conv2d (conv1)               [128, 256, 56, 56]   [128, 128, 56, 56]   32,768               True
│    │    └─BatchNorm2d (bn1)            [128, 128, 56, 56]   [128, 128, 56, 56]   256                  True
│    │    └─ReLU (relu)                  [128, 128, 56, 56]   [128, 128, 56, 56]   --                   --
│    │    └─Conv2d (conv2)               [128, 128, 56, 56]   [128, 128, 28, 28]   147,456              True
│    │    └─BatchNorm2d (bn2)            [128, 128, 28, 28]   [128, 128, 28, 28]   256                  True
│    │    └─ReLU (relu)                  [128, 128, 28, 28]   [128, 128, 28, 28]   --                   --
│    │    └─Conv2d (conv3)               [128, 128, 28, 28]   [128, 512, 28, 28]   65,536               True
│    │    └─BatchNorm2d (bn3)            [128, 512, 28, 28]   [128, 512, 28, 28]   1,024                True
│    │    └─Sequential (downsample)      [128, 256, 56, 56]   [128, 512, 28, 28]   132,096              True
│    │    └─ReLU (relu)                  [128, 512, 28, 28]   [128, 512, 28, 28]   --                   --
│    └─Bottleneck (1)                    [128, 512, 28, 28]   [128, 512, 28, 28]   --                   True
│    │    └─Conv2d (conv1)               [128, 512, 28, 28]   [128, 128, 28, 28]   65,536               True
│    │    └─BatchNorm2d (bn1)            [128, 128, 28, 28]   [128, 128, 28, 28]   256                  True
│    │    └─ReLU (relu)                  [128, 128, 28, 28]   [128, 128, 28, 28]   --                   --
│    │    └─Conv2d (conv2)               [128, 128, 28, 28]   [128, 128, 28, 28]   147,456              True
│    │    └─BatchNorm2d (bn2)            [128, 128, 28, 28]   [128, 128, 28, 28]   256                  True
│    │    └─ReLU (relu)                  [128, 128, 28, 28]   [128, 128, 28, 28]   --                   --
│    │    └─Conv2d (conv3)               [128, 128, 28, 28]   [128, 512, 28, 28]   65,536               True
│    │    └─BatchNorm2d (bn3)            [128, 512, 28, 28]   [128, 512, 28, 28]   1,024                True
│    │    └─ReLU (relu)                  [128, 512, 28, 28]   [128, 512, 28, 28]   --                   --
│    └─Bottleneck (2)                    [128, 512, 28, 28]   [128, 512, 28, 28]   --                   True
│    │    └─Conv2d (conv1)               [128, 512, 28, 28]   [128, 128, 28, 28]   65,536               True
│    │    └─BatchNorm2d (bn1)            [128, 128, 28, 28]   [128, 128, 28, 28]   256                  True
│    │    └─ReLU (relu)                  [128, 128, 28, 28]   [128, 128, 28, 28]   --                   --
│    │    └─Conv2d (conv2)               [128, 128, 28, 28]   [128, 128, 28, 28]   147,456              True
│    │    └─BatchNorm2d (bn2)            [128, 128, 28, 28]   [128, 128, 28, 28]   256                  True
│    │    └─ReLU (relu)                  [128, 128, 28, 28]   [128, 128, 28, 28]   --                   --
│    │    └─Conv2d (conv3)               [128, 128, 28, 28]   [128, 512, 28, 28]   65,536               True
│    │    └─BatchNorm2d (bn3)            [128, 512, 28, 28]   [128, 512, 28, 28]   1,024                True
│    │    └─ReLU (relu)                  [128, 512, 28, 28]   [128, 512, 28, 28]   --                   --
│    └─Bottleneck (3)                    [128, 512, 28, 28]   [128, 512, 28, 28]   --                   True
│    │    └─Conv2d (conv1)               [128, 512, 28, 28]   [128, 128, 28, 28]   65,536               True
│    │    └─BatchNorm2d (bn1)            [128, 128, 28, 28]   [128, 128, 28, 28]   256                  True
│    │    └─ReLU (relu)                  [128, 128, 28, 28]   [128, 128, 28, 28]   --                   --
│    │    └─Conv2d (conv2)               [128, 128, 28, 28]   [128, 128, 28, 28]   147,456              True
│    │    └─BatchNorm2d (bn2)            [128, 128, 28, 28]   [128, 128, 28, 28]   256                  True
│    │    └─ReLU (relu)                  [128, 128, 28, 28]   [128, 128, 28, 28]   --                   --
│    │    └─Conv2d (conv3)               [128, 128, 28, 28]   [128, 512, 28, 28]   65,536               True
│    │    └─BatchNorm2d (bn3)            [128, 512, 28, 28]   [128, 512, 28, 28]   1,024                True
│    │    └─ReLU (relu)                  [128, 512, 28, 28]   [128, 512, 28, 28]   --                   --
├─Sequential (layer3)                    [128, 512, 28, 28]   [128, 1024, 14, 14]  --                   True
│    └─Bottleneck (0)                    [128, 512, 28, 28]   [128, 1024, 14, 14]  --                   True
│    │    └─Conv2d (conv1)               [128, 512, 28, 28]   [128, 256, 28, 28]   131,072              True
│    │    └─BatchNorm2d (bn1)            [128, 256, 28, 28]   [128, 256, 28, 28]   512                  True
│    │    └─ReLU (relu)                  [128, 256, 28, 28]   [128, 256, 28, 28]   --                   --
│    │    └─Conv2d (conv2)               [128, 256, 28, 28]   [128, 256, 14, 14]   589,824              True
│    │    └─BatchNorm2d (bn2)            [128, 256, 14, 14]   [128, 256, 14, 14]   512                  True
│    │    └─ReLU (relu)                  [128, 256, 14, 14]   [128, 256, 14, 14]   --                   --
│    │    └─Conv2d (conv3)               [128, 256, 14, 14]   [128, 1024, 14, 14]  262,144              True
│    │    └─BatchNorm2d (bn3)            [128, 1024, 14, 14]  [128, 1024, 14, 14]  2,048                True
│    │    └─Sequential (downsample)      [128, 512, 28, 28]   [128, 1024, 14, 14]  526,336              True
│    │    └─ReLU (relu)                  [128, 1024, 14, 14]  [128, 1024, 14, 14]  --                   --
│    └─Bottleneck (1)                    [128, 1024, 14, 14]  [128, 1024, 14, 14]  --                   True
│    │    └─Conv2d (conv1)               [128, 1024, 14, 14]  [128, 256, 14, 14]   262,144              True
│    │    └─BatchNorm2d (bn1)            [128, 256, 14, 14]   [128, 256, 14, 14]   512                  True
│    │    └─ReLU (relu)                  [128, 256, 14, 14]   [128, 256, 14, 14]   --                   --
│    │    └─Conv2d (conv2)               [128, 256, 14, 14]   [128, 256, 14, 14]   589,824              True
│    │    └─BatchNorm2d (bn2)            [128, 256, 14, 14]   [128, 256, 14, 14]   512                  True
│    │    └─ReLU (relu)                  [128, 256, 14, 14]   [128, 256, 14, 14]   --                   --
│    │    └─Conv2d (conv3)               [128, 256, 14, 14]   [128, 1024, 14, 14]  262,144              True
│    │    └─BatchNorm2d (bn3)            [128, 1024, 14, 14]  [128, 1024, 14, 14]  2,048                True
│    │    └─ReLU (relu)                  [128, 1024, 14, 14]  [128, 1024, 14, 14]  --                   --
│    └─Bottleneck (2)                    [128, 1024, 14, 14]  [128, 1024, 14, 14]  --                   True
│    │    └─Conv2d (conv1)               [128, 1024, 14, 14]  [128, 256, 14, 14]   262,144              True
│    │    └─BatchNorm2d (bn1)            [128, 256, 14, 14]   [128, 256, 14, 14]   512                  True
│    │    └─ReLU (relu)                  [128, 256, 14, 14]   [128, 256, 14, 14]   --                   --
│    │    └─Conv2d (conv2)               [128, 256, 14, 14]   [128, 256, 14, 14]   589,824              True
│    │    └─BatchNorm2d (bn2)            [128, 256, 14, 14]   [128, 256, 14, 14]   512                  True
│    │    └─ReLU (relu)                  [128, 256, 14, 14]   [128, 256, 14, 14]   --                   --
│    │    └─Conv2d (conv3)               [128, 256, 14, 14]   [128, 1024, 14, 14]  262,144              True
│    │    └─BatchNorm2d (bn3)            [128, 1024, 14, 14]  [128, 1024, 14, 14]  2,048                True
│    │    └─ReLU (relu)                  [128, 1024, 14, 14]  [128, 1024, 14, 14]  --                   --
│    └─Bottleneck (3)                    [128, 1024, 14, 14]  [128, 1024, 14, 14]  --                   True
│    │    └─Conv2d (conv1)               [128, 1024, 14, 14]  [128, 256, 14, 14]   262,144              True
│    │    └─BatchNorm2d (bn1)            [128, 256, 14, 14]   [128, 256, 14, 14]   512                  True
│    │    └─ReLU (relu)                  [128, 256, 14, 14]   [128, 256, 14, 14]   --                   --
│    │    └─Conv2d (conv2)               [128, 256, 14, 14]   [128, 256, 14, 14]   589,824              True
│    │    └─BatchNorm2d (bn2)            [128, 256, 14, 14]   [128, 256, 14, 14]   512                  True
│    │    └─ReLU (relu)                  [128, 256, 14, 14]   [128, 256, 14, 14]   --                   --
│    │    └─Conv2d (conv3)               [128, 256, 14, 14]   [128, 1024, 14, 14]  262,144              True
│    │    └─BatchNorm2d (bn3)            [128, 1024, 14, 14]  [128, 1024, 14, 14]  2,048                True
│    │    └─ReLU (relu)                  [128, 1024, 14, 14]  [128, 1024, 14, 14]  --                   --
│    └─Bottleneck (4)                    [128, 1024, 14, 14]  [128, 1024, 14, 14]  --                   True
│    │    └─Conv2d (conv1)               [128, 1024, 14, 14]  [128, 256, 14, 14]   262,144              True
│    │    └─BatchNorm2d (bn1)            [128, 256, 14, 14]   [128, 256, 14, 14]   512                  True
│    │    └─ReLU (relu)                  [128, 256, 14, 14]   [128, 256, 14, 14]   --                   --
│    │    └─Conv2d (conv2)               [128, 256, 14, 14]   [128, 256, 14, 14]   589,824              True
│    │    └─BatchNorm2d (bn2)            [128, 256, 14, 14]   [128, 256, 14, 14]   512                  True
│    │    └─ReLU (relu)                  [128, 256, 14, 14]   [128, 256, 14, 14]   --                   --
│    │    └─Conv2d (conv3)               [128, 256, 14, 14]   [128, 1024, 14, 14]  262,144              True
│    │    └─BatchNorm2d (bn3)            [128, 1024, 14, 14]  [128, 1024, 14, 14]  2,048                True
│    │    └─ReLU (relu)                  [128, 1024, 14, 14]  [128, 1024, 14, 14]  --                   --
│    └─Bottleneck (5)                    [128, 1024, 14, 14]  [128, 1024, 14, 14]  --                   True
│    │    └─Conv2d (conv1)               [128, 1024, 14, 14]  [128, 256, 14, 14]   262,144              True
│    │    └─BatchNorm2d (bn1)            [128, 256, 14, 14]   [128, 256, 14, 14]   512                  True
│    │    └─ReLU (relu)                  [128, 256, 14, 14]   [128, 256, 14, 14]   --                   --
│    │    └─Conv2d (conv2)               [128, 256, 14, 14]   [128, 256, 14, 14]   589,824              True
│    │    └─BatchNorm2d (bn2)            [128, 256, 14, 14]   [128, 256, 14, 14]   512                  True
│    │    └─ReLU (relu)                  [128, 256, 14, 14]   [128, 256, 14, 14]   --                   --
│    │    └─Conv2d (conv3)               [128, 256, 14, 14]   [128, 1024, 14, 14]  262,144              True
│    │    └─BatchNorm2d (bn3)            [128, 1024, 14, 14]  [128, 1024, 14, 14]  2,048                True
│    │    └─ReLU (relu)                  [128, 1024, 14, 14]  [128, 1024, 14, 14]  --                   --
├─Sequential (layer4)                    [128, 1024, 14, 14]  [128, 2048, 7, 7]    --                   True
│    └─Bottleneck (0)                    [128, 1024, 14, 14]  [128, 2048, 7, 7]    --                   True
│    │    └─Conv2d (conv1)               [128, 1024, 14, 14]  [128, 512, 14, 14]   524,288              True
│    │    └─BatchNorm2d (bn1)            [128, 512, 14, 14]   [128, 512, 14, 14]   1,024                True
│    │    └─ReLU (relu)                  [128, 512, 14, 14]   [128, 512, 14, 14]   --                   --
│    │    └─Conv2d (conv2)               [128, 512, 14, 14]   [128, 512, 7, 7]     2,359,296            True
│    │    └─BatchNorm2d (bn2)            [128, 512, 7, 7]     [128, 512, 7, 7]     1,024                True
│    │    └─ReLU (relu)                  [128, 512, 7, 7]     [128, 512, 7, 7]     --                   --
│    │    └─Conv2d (conv3)               [128, 512, 7, 7]     [128, 2048, 7, 7]    1,048,576            True
│    │    └─BatchNorm2d (bn3)            [128, 2048, 7, 7]    [128, 2048, 7, 7]    4,096                True
│    │    └─Sequential (downsample)      [128, 1024, 14, 14]  [128, 2048, 7, 7]    2,101,248            True
│    │    └─ReLU (relu)                  [128, 2048, 7, 7]    [128, 2048, 7, 7]    --                   --
│    └─Bottleneck (1)                    [128, 2048, 7, 7]    [128, 2048, 7, 7]    --                   True
│    │    └─Conv2d (conv1)               [128, 2048, 7, 7]    [128, 512, 7, 7]     1,048,576            True
│    │    └─BatchNorm2d (bn1)            [128, 512, 7, 7]     [128, 512, 7, 7]     1,024                True
│    │    └─ReLU (relu)                  [128, 512, 7, 7]     [128, 512, 7, 7]     --                   --
│    │    └─Conv2d (conv2)               [128, 512, 7, 7]     [128, 512, 7, 7]     2,359,296            True
│    │    └─BatchNorm2d (bn2)            [128, 512, 7, 7]     [128, 512, 7, 7]     1,024                True
│    │    └─ReLU (relu)                  [128, 512, 7, 7]     [128, 512, 7, 7]     --                   --
│    │    └─Conv2d (conv3)               [128, 512, 7, 7]     [128, 2048, 7, 7]    1,048,576            True
│    │    └─BatchNorm2d (bn3)            [128, 2048, 7, 7]    [128, 2048, 7, 7]    4,096                True
│    │    └─ReLU (relu)                  [128, 2048, 7, 7]    [128, 2048, 7, 7]    --                   --
│    └─Bottleneck (2)                    [128, 2048, 7, 7]    [128, 2048, 7, 7]    --                   True
│    │    └─Conv2d (conv1)               [128, 2048, 7, 7]    [128, 512, 7, 7]     1,048,576            True
│    │    └─BatchNorm2d (bn1)            [128, 512, 7, 7]     [128, 512, 7, 7]     1,024                True
│    │    └─ReLU (relu)                  [128, 512, 7, 7]     [128, 512, 7, 7]     --                   --
│    │    └─Conv2d (conv2)               [128, 512, 7, 7]     [128, 512, 7, 7]     2,359,296            True
│    │    └─BatchNorm2d (bn2)            [128, 512, 7, 7]     [128, 512, 7, 7]     1,024                True
│    │    └─ReLU (relu)                  [128, 512, 7, 7]     [128, 512, 7, 7]     --                   --
│    │    └─Conv2d (conv3)               [128, 512, 7, 7]     [128, 2048, 7, 7]    1,048,576            True
│    │    └─BatchNorm2d (bn3)            [128, 2048, 7, 7]    [128, 2048, 7, 7]    4,096                True
│    │    └─ReLU (relu)                  [128, 2048, 7, 7]    [128, 2048, 7, 7]    --                   --
├─AdaptiveAvgPool2d (avgpool)            [128, 2048, 7, 7]    [128, 2048, 1, 1]    --                   --
├─Linear (fc)                            [128, 2048]          [128, 10]            20,490               True
========================================================================================================================
Total params: 23,528,522
Trainable params: 23,528,522
Non-trainable params: 0
Total mult-adds (Units.GIGABYTES): 523.16
========================================================================================================================
Input size (MB): 77.07
…
