…
Num GPUs: 1
0
NVIDIA GeForce RTX 3070 Ti
True
Files already downloaded and verified
Files already downloaded and verified
Number of training examples: 50000
Number of testing examples: 10000
========================================================================================================================
Layer (type (var_name))                  Input Shape          Output Shape         Param #              Trainable
========================================================================================================================
ResNet (ResNet)                          [128, 3, 224, 224]   [128, 10]            --                   True
├─Conv2d (conv1)                         [128, 3, 224, 224]   [128, 64, 112, 112]  9,408                True
├─BatchNorm2d (bn1)                      [128, 64, 112, 112]  [128, 64, 112, 112]  128                  True
├─ReLU (relu)                            [128, 64, 112, 112]  [128, 64, 112, 112]  --                   --
├─MaxPool2d (maxpool)                    [128, 64, 112, 112]  [128, 64, 56, 56]    --                   --
├─Sequential (layer1)                    [128, 64, 56, 56]    [128, 64, 56, 56]    --                   True
│    └─BasicBlock (0)                    [128, 64, 56, 56]    [128, 64, 56, 56]    --                   True
│    │    └─Conv2d (conv1)               [128, 64, 56, 56]    [128, 64, 56, 56]    36,864               True
│    │    └─BatchNorm2d (bn1)            [128, 64, 56, 56]    [128, 64, 56, 56]    128                  True
│    │    └─ReLU (relu)                  [128, 64, 56, 56]    [128, 64, 56, 56]    --                   --
│    │    └─Conv2d (conv2)               [128, 64, 56, 56]    [128, 64, 56, 56]    36,864               True
│    │    └─BatchNorm2d (bn2)            [128, 64, 56, 56]    [128, 64, 56, 56]    128                  True
│    │    └─ReLU (relu)                  [128, 64, 56, 56]    [128, 64, 56, 56]    --                   --
│    └─BasicBlock (1)                    [128, 64, 56, 56]    [128, 64, 56, 56]    --                   True
│    │    └─Conv2d (conv1)               [128, 64, 56, 56]    [128, 64, 56, 56]    36,864               True
│    │    └─BatchNorm2d (bn1)            [128, 64, 56, 56]    [128, 64, 56, 56]    128                  True
│    │    └─ReLU (relu)                  [128, 64, 56, 56]    [128, 64, 56, 56]    --                   --
│    │    └─Conv2d (conv2)               [128, 64, 56, 56]    [128, 64, 56, 56]    36,864               True
│    │    └─BatchNorm2d (bn2)            [128, 64, 56, 56]    [128, 64, 56, 56]    128                  True
│    │    └─ReLU (relu)                  [128, 64, 56, 56]    [128, 64, 56, 56]    --                   --
├─Sequential (layer2)                    [128, 64, 56, 56]    [128, 128, 28, 28]   --                   True
│    └─BasicBlock (0)                    [128, 64, 56, 56]    [128, 128, 28, 28]   --                   True
│    │    └─Conv2d (conv1)               [128, 64, 56, 56]    [128, 128, 28, 28]   73,728               True
│    │    └─BatchNorm2d (bn1)            [128, 128, 28, 28]   [128, 128, 28, 28]   256                  True
│    │    └─ReLU (relu)                  [128, 128, 28, 28]   [128, 128, 28, 28]   --                   --
│    │    └─Conv2d (conv2)               [128, 128, 28, 28]   [128, 128, 28, 28]   147,456              True
│    │    └─BatchNorm2d (bn2)            [128, 128, 28, 28]   [128, 128, 28, 28]   256                  True
│    │    └─Sequential (downsample)      [128, 64, 56, 56]    [128, 128, 28, 28]   8,448                True
│    │    └─ReLU (relu)                  [128, 128, 28, 28]   [128, 128, 28, 28]   --                   --
│    └─BasicBlock (1)                    [128, 128, 28, 28]   [128, 128, 28, 28]   --                   True
│    │    └─Conv2d (conv1)               [128, 128, 28, 28]   [128, 128, 28, 28]   147,456              True
│    │    └─BatchNorm2d (bn1)            [128, 128, 28, 28]   [128, 128, 28, 28]   256                  True
│    │    └─ReLU (relu)                  [128, 128, 28, 28]   [128, 128, 28, 28]   --                   --
│    │    └─Conv2d (conv2)               [128, 128, 28, 28]   [128, 128, 28, 28]   147,456              True
│    │    └─BatchNorm2d (bn2)            [128, 128, 28, 28]   [128, 128, 28, 28]   256                  True
│    │    └─ReLU (relu)                  [128, 128, 28, 28]   [128, 128, 28, 28]   --                   --
├─Sequential (layer3)                    [128, 128, 28, 28]   [128, 256, 14, 14]   --                   True
│    └─BasicBlock (0)                    [128, 128, 28, 28]   [128, 256, 14, 14]   --                   True
│    │    └─Conv2d (conv1)               [128, 128, 28, 28]   [128, 256, 14, 14]   294,912              True
│    │    └─BatchNorm2d (bn1)            [128, 256, 14, 14]   [128, 256, 14, 14]   512                  True
│    │    └─ReLU (relu)                  [128, 256, 14, 14]   [128, 256, 14, 14]   --                   --
│    │    └─Conv2d (conv2)               [128, 256, 14, 14]   [128, 256, 14, 14]   589,824              True
│    │    └─BatchNorm2d (bn2)            [128, 256, 14, 14]   [128, 256, 14, 14]   512                  True
│    │    └─Sequential (downsample)      [128, 128, 28, 28]   [128, 256, 14, 14]   33,280               True
│    │    └─ReLU (relu)                  [128, 256, 14, 14]   [128, 256, 14, 14]   --                   --
│    └─BasicBlock (1)                    [128, 256, 14, 14]   [128, 256, 14, 14]   --                   True
│    │    └─Conv2d (conv1)               [128, 256, 14, 14]   [128, 256, 14, 14]   589,824              True
│    │    └─BatchNorm2d (bn1)            [128, 256, 14, 14]   [128, 256, 14, 14]   512                  True
│    │    └─ReLU (relu)                  [128, 256, 14, 14]   [128, 256, 14, 14]   --                   --
│    │    └─Conv2d (conv2)               [128, 256, 14, 14]   [128, 256, 14, 14]   589,824              True
│    │    └─BatchNorm2d (bn2)            [128, 256, 14, 14]   [128, 256, 14, 14]   512                  True
│    │    └─ReLU (relu)                  [128, 256, 14, 14]   [128, 256, 14, 14]   --                   --
├─Sequential (layer4)                    [128, 256, 14, 14]   [128, 512, 7, 7]     --                   True
│    └─BasicBlock (0)                    [128, 256, 14, 14]   [128, 512, 7, 7]     --                   True
│    │    └─Conv2d (conv1)               [128, 256, 14, 14]   [128, 512, 7, 7]     1,179,648            True
│    │    └─BatchNorm2d (bn1)            [128, 512, 7, 7]     [128, 512, 7, 7]     1,024                True
│    │    └─ReLU (relu)                  [128, 512, 7, 7]     [128, 512, 7, 7]     --                   --
│    │    └─Conv2d (conv2)               [128, 512, 7, 7]     [128, 512, 7, 7]     2,359,296            True
│    │    └─BatchNorm2d (bn2)            [128, 512, 7, 7]     [128, 512, 7, 7]     1,024                True
│    │    └─Sequential (downsample)      [128, 256, 14, 14]   [128, 512, 7, 7]     132,096              True
│    │    └─ReLU (relu)                  [128, 512, 7, 7]     [128, 512, 7, 7]     --                   --
│    └─BasicBlock (1)                    [128, 512, 7, 7]     [128, 512, 7, 7]     --                   True
│    │    └─Conv2d (conv1)               [128, 512, 7, 7]     [128, 512, 7, 7]     2,359,296            True
│    │    └─BatchNorm2d (bn1)            [128, 512, 7, 7]     [128, 512, 7, 7]     1,024                True
│    │    └─ReLU (relu)                  [128, 512, 7, 7]     [128, 512, 7, 7]     --                   --
│    │    └─Conv2d (conv2)               [128, 512, 7, 7]     [128, 512, 7, 7]     2,359,296            True
│    │    └─BatchNorm2d (bn2)            [128, 512, 7, 7]     [128, 512, 7, 7]     1,024                True
│    │    └─ReLU (relu)                  [128, 512, 7, 7]     [128, 512, 7, 7]     --                   --
├─AdaptiveAvgPool2d (avgpool)            [128, 512, 7, 7]     [128, 512, 1, 1]     --                   --
├─Linear (fc)                            [128, 512]           [128, 10]            5,130                True
========================================================================================================================
Total params: 11,181,642
Trainable params: 11,181,642
Non-trainable params: 0
Total mult-adds (Units.GIGABYTES): 232.14
========================================================================================================================
Input size (MB): 77.07
…
